Presentation/checkpoint_final.tar (torch_old, 534009 bytes, 33 tensors)

layer1.weight f4 [123, 41]
00000000: 13fb bb3d 2733 503e 57cc 55bd 38cb 1e3e
00000010: 114c 86bd 1ddf edbc 19bc 123d 2db0 6fbe
00000020: ba6d b93c 1a3c 31bd 1c2a e03d 0bd8 cfbd
00000030: 6b70 323e 1925 cf3d a523 023e 527d 4f3e
00000040: db3f 063e 8172 b2bd 118d cd3d 3b23 dbbd
00000050: 97bc ca3d 7e51 e9bd 4015 5d3d 747b c4bd
00000060: 46dc 15be 8ff8 c33d f674 1d3d 4ce3 6fbe
00000070: 7b15 8f3e 64d6 eb3b 2c0e 9c3e 3d14 8ebd
00000080: de62 123e a223 553c 6acc 85be 712a 2b3d
00000090: 4c35 123d 2ef7 873d 21f1 0c3e 0c68 86be
000000a0: 6a34 a73b 63de 0abd 3455 0ebe 790e 083e
000000b0: 9d9b 383e 9d5f a73c cbb0 9abd 146c 463d
000000c0: fe97 583d e756 743c 7917 4b3e 0ba9 3bbc
000000d0: 4663 973b 96c7 313e 06fa 9a3d 7cf2 28be
000000e0: c8f5 653d 17a8 1ebd 263f b03d 886d 043e
000000f0: 7a3a 813e d912 5a3e cfd7 28be 7842 34be
00000100: ea77 193c 403a b1bd db9d 3bbd 0836 34bd
00000110: 4210 f5bd 3fb3 e6bd 7a55 973a 7328 99bd
00000120: 2e77 41be 128c 173e 490d 05be 8fc2 a8bd
00000130: 34e8 9f3c e23e 5f3e c421 253d bcd9 fc3c
00000140: 36a2 8c3d 9f77 d6bd c965 82bc c8c1 17be
00000150: 9256 f33d 8a8d 2dbe 7e26 c93d a671 053e
00000160: 3292 bfbc a675 11be 53e8 67bd 19c2 58bd
00000170: 2df2 33bc 771f b83d 410e d4bd b835 56bd
00000180: 4aff 28be 9206 813d 8ab9 ff3d 64cc 4b3e
00000190: 820c 60be 4b6a 853d 3cb3 0a3e 3996 123e
000001a0: e9e2 e7bd 78e4 e33d 848b 74be 47b0 fdbd
000001b0: 4259 d83d b3d7 97bd 4666 213e 44bc bf3d
000001c0: be37 01bd b610 723e a803 263e 186c 5b3d
000001d0: c301 a3be 3371 c3bc ff1a c0bc 7582 9cbe
000001e0: c8cd b3bc daf9 053e ffca 063e fa30 bbbc
000001f0: 1c9e 193e 1529 5e3d 1a70 65be ecee 543d
00000200: bfab 16be 8ca1 bb3d 8711 ee3d 3bed 153d
00000210: 4679 87bb 05ed 0f3e c95f 29be 33fa 8abc
00000220: 65ab 453d b709 b73d d3ee 6fbe c554 b43d
00000230: 1856 033c 9e94 0fbe a5fe 5ebd b3f3 3c3d
00000240: 8ea3 15be 7357 03be 9629 913d a13b 5cbd
00000250: fbcc 653e ddfd be3d e63b 6e3c 005b ebbd
00000260: 745b 273e 1281 b43d 3212 ef3c 9aed c83d
00000270: 5afa 143c c19a 773d afa3 d93d 8001 b53d
00000280: 52d4 f6bd 51fd 0bbe 0aa9 713d 31bf 363c
00000290: 85ea d4bd a4ed 273d 3019 44be c0bc c03d
000002a0: ef53 903d c1d7 74bc 2824 003e 70fa 0fbe
000002b0: a304 cebd a8e3 9f3e 3827 02bd d1c9 053e
000002c0: ca59 44be df6e c3bd f47a 623d 1fa7 96be
000002d0: acd6 3d3e 6df3 1cbe eb0d e03d 3fea 413e
000002e0: 6bf0 a93d cbfd 21bd 0fd0 40be 7dc7 d6bd
000002f0: 6df4 923b 3f44 28be 7a64 d33c 0187 2ebe
00000300: e0f6 573e 95a3 143e ecb8 903e d63b 873d
00000310: 3441 0b3e 2bf5 8fbd 6ef6 373d 0b8d c83d
00000320: 5e46 66bd a411 8dbd 1fbb 513d 8fa0 663e
00000330: 5e04 cf3d 4296 d43b ba79 80bc fd6b 1fbe
00000340: 9a77 a0bb ce24 3b3e 1117 72bd 1c70 ecba
00000350: 09eb 93bd a1e1 0bbe 6d92 523e 059d 313e
00000360: 1aa9 453e c0ed 113e b5a9 8abc b469 c1bc
00000370: c572 903e 48ad 7d3d 1c8b 29be 31f1 ffbd
00000380: 7d52 77bd 0ef7 9e3e 7e7d 3a3e 3dd5 f9bd
00000390: 0708 f53d bd5f aebd 5af3 e7bd dbc1 adbd
000003a0: c9dc e9bd 29c0 fd3d 68d7 9fbd 3d1a 14be
000003b0: 3ca6 f0bd 7b2a 64bc cc27 d13d cdc2 99bd
000003c0: b2b9 923d 876b 683d 6f4d 063e e6f2 8e3d
000003d0: 36e4 e1bd a7c6 dd3d b584 9c3d 0ea9 01be
000003e0: 2ec8 c73d 1789 2a3e 46a7 a4bd d013 dcbd
000003f0: 5dda 343e 2a0b 03bc 8956 323d 5d3f 053e
0.09178748 0.20332013 -0.052196827 0.1550721 -0.06557477 -0.029037053 0.035823915 -0.2340705
0.02263533 -0.043270208 0.10945532 -0.10148629 0.17425697 0.10114498 0.1270891 0.2026265
0.13110296 -0.08713246 0.10036672 -0.10700079 0.09899252 -0.113924965 0.053975344 -0.09593859
-0.14634809 0.09568893 0.03844162 -0.2342655 0.27946076 0.007197188 0.30479562 -0.06937454
0.14295527 0.013008984 -0.26132518 0.041788522 0.03569536 0.06638943 0.13763858 -0.26251256
0.005102684 -0.03390349 -0.1389969 0.13286771 0.18028112 0.020431334 -0.07553252 0.048442915
0.052879326 0.014913297 0.19833173 -0.011453877 0.0046199886 0.17361292 0.075672194 -0.1649875
0.0561426 -0.03873452 0.086057946 0.12932408 0.25239927 0.21296252 -0.16488574 -0.17603481
0.009366969 -0.086536884 -0.04580484 -0.04399684 -0.119659916 -0.11264657 0.001154586 -0.07478418
-0.1889312 0.14799526 -0.12993349 -0.08240234 0.019519903 0.21801332 0.040315405 0.030865543
0.06866877 -0.10472035 -0.015917676 -0.14820015 0.11881746 -0.16948524 0.09821795 0.13031635
-0.023385141 -0.14205036 -0.056618046 -0.05291948 -0.010983032 0.089903764 -0.10354281 -0.052297324
-0.16503635 0.06300081 0.12486561 0.19902188 -0.21879771 0.065144144 0.13544935 0.14315118
-0.113225766 0.11127561 -0.23881346 -0.12387138 0.105638996 -0.07414188 0.1576167 0.09362081
-0.0315473 0.23639187 0.16212332 0.053569883 -0.31837282 -0.023857689 -0.023450373 -0.3056828
-0.02194871 0.13083592 0.13163374 -0.022850502 0.1500172 0.054238398 -0.22406045 0.051985666
-0.14713953 0.09161672 0.11624437 0.036603194 -0.00413433 0.1405526 -0.16540445 -0.016965007
0.048259158 0.089374 -0.23430948 0.08805231 0.008016132 -0.14021537 -0.054442067 0.046130847
-0.14613172 -0.12826328 0.0708801 -0.053767804 0.22441475 0.09325764 0.014540648 -0.11491966
0.1634348 0.08813681 0.02918348 0.09810944 0.009092892 0.06045032 0.10626923 0.08838177
-0.12052216 -0.13670851 0.0589991 0.011153982 -0.103962936 0.040998116 -0.19150233 0.09411001
0.07047259 -0.014944018 0.12513793 -0.14060378 -0.10059478 0.31228375 -0.031775683 0.13065268
-0.19174877 -0.09542631 0.05529304 -0.29424378 0.18538922 -0.15327235 0.10940155 0.18937014
0.08297809 -0.039548676 -0.18829368 -0.10487268 0.004484704 -0.16432284 0.025804747 -0.17043687
0.21090269 0.14515527 0.28266084 0.0660321 0.13599092 -0.07029184 0.044912748 0.09792527
-0.05621945 -0.0688813 0.051203843 0.22522186 0.10108255 0.0064876387 -0.015683044 -0.15568538
-0.00489707 0.18275759 -0.05910403 -0.0018038782 -0.07222564 -0.1366029 0.2056367 0.17345054
0.19302788 0.1425085 -0.016926626 -0.023609973 0.28212562 0.061932832 -0.16556972 -0.124971755
-0.0603814 0.31047863 0.18211934 -0.12198875 0.11964422 -0.085143544 -0.113257125 -0.084842406
-0.114190646 0.12390167 -0.07804757 -0.14463134 -0.11750457 -0.013926144 0.10212669 -0.075078584
0.07164325 0.05674317 0.13115476 0.06979923 -0.11029856 0.108289056 0.07642499 -0.12662145
0.09754978 0.16653858 -0.080397174 -0.107459664 0.17661424 -0.007998267 0.043539558 0.13012452

layer1.bias f4 [123]
00000000: b5cf ccbc 0166 193e 4069 89bd 9210 e43c
00000010: e7ee 30bd 69d7 a63c 288a debb 742f dbbd
00000020: ae3b a5bd 3097 31bd e4ed 673d afe7 2e3c
00000030: 1741 aa3d dbe7 fdbd 56b2 74bd a822 233d
00000040: 62a9 913d cc13 06be db43 c93d 2746 a53d
00000050: bd86 8a3d f8e7 a0bd 0893 11be 2cfa 05bd
00000060: 00f9 2f3e 906b 243e c105 d43d ca01 0fbe
00000070: 4752 9b3b eb85 6f3b 5d40 7f3d 7705 06be
00000080: d175 0d3d 61ce debd ecc1 d9bd cd79 febd
00000090: 022b 81bc b660 8cbd a7f1 153e 5f89 03be
000000a0: f23f 0b3e 9fd8 b53d 1b00 e0bd 4c4e 313e
000000b0: 29f0 ba3d 1df7 f63d 5326 a13d 2d7d 203d
000000c0: cede a5bd d48a 873d 3f43 64bd 96f9 c1bd
000000d0: 2c01 0cbe 366d f93d 01f8 c53d e10f 1cbd
000000e0: fe4d 00bd 900f 96bd ebae 983d 5b3b f4bd
000000f0: 2a01 9f3d 88cb 84bd 61ba 51bd 7812 803d
00000100: e02f d0bc 29e8 edbc 10f5 cebd e428 1a3e
00000110: da37 e43d 550d b0bd 30fa 5abd d322 493d
00000120: d316 423d c1a2 953d f47c 7dbd c2db fb3d
00000130: 5b58 033b cc65 92bd d7f6 113e 1a69 dfbd
00000140: 2403 0bbe 0465 edbc f188 9d3d 4744 68bb
00000150: b1b6 c3bd cb5d 023d 18e5 d3bc 2ae2 913d
00000160: d0b0 57bc fc35 1e3e bcdc 0d3e b6ff 173e
00000170: 62d7 6eb9 05d6 09be da1e 7abd 163e 873d
00000180: 208b 713c 61d9 b13d c6f6 d2bd f992 92bd
00000190: e22c 16be fccf d43d c52d 69bd 1db6 ad3d
000001a0: 764b 293e 6b11 8f3d da6d 343e 750f 99bd
000001b0: ca54 b43c bbd5 363d 3564 a7bd 9168 bd3d
000001c0: e590 e73c 95e2 0dbe 2455 d03c 9aa2 a8bd
000001d0: 8786 533d 8bff 8abd daea 023e 78eb 203e
000001e0: 689d fb3b 5e83 ab3d aa4d c6bd
-0.025001386 0.14980318 -0.06709528 0.027839933 -0.043196585 0.020366387 -0.006791372 -0.1070241
-0.080680236 -0.043357074 0.056623355 0.010675355 0.08313196 -0.123977385 -0.059740387 0.039827973
0.07112385 -0.1309349 0.098273955 0.08070021 0.067639805 -0.078567445 -0.14216244 -0.032709286
0.1718483 0.16056657 0.1035266 -0.13965526 0.004740033 0.0036548327 0.06231724 -0.13088022
0.034536187 -0.108792074 -0.10632691 -0.124255754 -0.015767578 -0.06854384 0.14642964 -0.12845372
0.13598612 0.08879208 -0.1093752 0.17315024 0.09127838 0.12058852 0.07868638 0.039181877
-0.08099137 0.06618276 -0.055728193 -0.09471433 -0.13672322 0.121790335 0.096664436 -0.03810108
-0.03132438 -0.07327187 0.07455238 -0.11925384 0.07763894 -0.06484133 -0.051203135 0.06253523
-0.025413454 -0.029041367 -0.10105336 0.15054661 0.11143465 -0.08596293 -0.053461254 0.049105477
0.047385048 0.073064335 -0.061886743 0.12297775 0.0020041678 -0.071483225 0.14254318 -0.109087184
-0.13575417 -0.028978832 0.07692135 -0.0035441087 -0.0955633 0.03182773 -0.025866076 0.071232155
-0.013164714 0.15450281 0.13853735 0.1484364 -0.00022777685 -0.13460548 -0.06106458 0.06603639
0.014742643 0.0868404 -0.103009745 -0.07156939 -0.14665559 0.10391232 -0.056928415 0.08482001
0.16532692 0.06985744 0.1762003 -0.07473651 0.022013087 0.044637423 -0.0817341 0.0924846
0.028267333 -0.13855965 0.025431223 -0.08234139 0.051641967 -0.06787022 0.12784901 0.15714824
0.0076786764 0.08374666 -0.09682782

layer2.weight f4 [123, 123]
00000000: 0a45 64bc b722 ca3d 9c20 ba3d 4030 be3d
00000010: 7f16 3dbe 40b2 333d b377 d33b c6e5 38bd
00000020: 53db 243d a74f 33be dafb 803d 1f6e c4bd
00000030: 9942 efbb b092 453c 1bba 433d c910 4bbd
00000040: ac34 c5bd 6df7 a2bd df5a bf3c 764d f73d
00000050: af00 d13c d321 14be 4436 9cbc 7346 c8bd
00000060: f558 a73c c2ea bebd 5142 1c3e 3ff5 93bc
00000070: 795b 3d3d 0ffc 503d aeba b13d f45a 35bc
00000080: bbf1 a3bd 1bfc e4bd 1f53 613d f10d 053c
00000090: 169f 063e ecca 1abd 1f93 5d3d 7b4b f33d
000000a0: 60e5 4bbd 1404 a1bd ddfd 8dbc 5dd7 a23d
000000b0: f60b cabc 02ce 863d 9bcc 453d 587d 54bb
000000c0: 3633 3b3d 0095 1abe 18ed 95bd 1cde ddbd
000000d0: e6e3 363c 67b9 95bd 9244 a2ba ace6 afbd
000000e0: cb85 0d3c 9078 79bd 53a3 70bd a5f1 bf3d
000000f0: ac8c e83b ac58 c93d 9704 463c 8552 1ebe
00000100: 4ad5 503d 73a4 edbc e724 be3d 4e6b d1bb
00000110: 0a14 033e 855e 25be ad1d 03bd 1476 283c
00000120: 5d21 1c3e 4ac6 a4bd f44f a43c 024c 303c
00000130: 72b1 b33d 5504 39bd f1a1 d83d 641c 83be
00000140: 3e1d 3abb ee47 5d3d 3274 d23c 9569 c53c
00000150: aba5 2bbd 56c3 153c 435f abbc 24ba 20be
00000160: 8361 e9bd f346 193d b53b 41be d400 213d
00000170: 0339 833d 912e c5bc c3cf 0bbd dfdf f1b9
00000180: 6706 06be 7b88 febd dd72 b33d fd5f 503c
00000190: 36ea 6c3e 776c 05be 71fe d2bc 388e 8a3d
000001a0: 0885 eabc 9f0a afbd 59e1 6a3d ba9e 00bd
000001b0: ca08 4e3d e296 a7bd 97e5 883d 5054 e43c
000001c0: ffea 02bd 1da3 b93c 5f08 173b c560 533e
000001d0: c94d 703d 5e20 0b3d 35bb 3c3d ac07 0fbe
000001e0: 837d 5ebd 3938 983c d7f1 a43d 2deb 003e
000001f0: 776e c2bd 1c12 04be 9f9c 963c d0ac 63bc
00000200: 3ea9 243d 85f5 75bd a01c 8bbd 6093 853d
00000210: 825d 1fbd 7e78 0c3d b633 d33c 2d13 093d
00000220: 0129 3c3c b35c 88bc c45f 1fbe 696d fcbd
00000230: 90b7 35be c6ca e03d 2281 cebd 8170 4a3d
00000240: 9009 e5bd 7f6c 583d b1fc e0bd 817a 033d
00000250: ba1e bcbd 4849 523d dc44 e93b 53de 9f3d
00000260: e59f 5fbd cde5 9abd 6e31 7c3d 7743 6a3d
00000270: 752f b43c 952d aabd 9143 833d 88f6 0f3d
00000280: 959a 773d 4017 11be 75a1 2cbd 0927 16bd
00000290: 65f3 e03d 2fd1 67bd 5864 13be 89db cfbd
000002a0: 0502 ae3d e905 9cbd e144 83bd 4107 48bd
000002b0: dad4 be3d f3fe ac3c 261b d23d da8d 7ebd
000002c0: 727a cabd 6cee a53d d981 773c fef2 a63d
000002d0: 085a d93d 4103 ac3d 9c81 85bd a5bb 083e
000002e0: ef4c 9fbc 0954 43be 870e 6bbd 2569 823d
000002f0: f588 9bbd ce12 2ebd c7f6 073d dcf5 76bd
00000300: 307d 33bc 1845 b13d a63c 87bd e232 0dbe
00000310: b92c c13c c9ac 30be 4cd8 18bd 1d16 0bbe
00000320: dbac bd3b 67d6 cd3d ae15 313e 2038 e0bc
00000330: 0724 f53d 7d41 80ba 5ed9 4c3d b1a9 18bd
00000340: a1b4 5abc 0869 c83d b4bb 85bd 94dd 953d
00000350: 278b 6bbd 057b f63c 75a1 fc3d 5f2d 4ebe
00000360: 3cb4 083e cff2 78bc f646 063e 7ff9 9bbd
00000370: db09 0abe af38 bc39 0322 1ebd aadc 143d
00000380: 942e cd3d f55e 36bd 3f1f ecbd bfe8 b3bd
00000390: 1cc7 ca3d 8f0a 203d 955c e5bd 5616 4cbd
000003a0: ca54 3fbe b24a 32be 41e9 87bc 332e 1a3e
000003b0: 4c06 323e 80b5 2b3e 7f0b 93bd ee9b bc3d
000003c0: ac72 4dbd e420 61bd 0270 413e 2287 a73d
000003d0: 1774 a2bc 0fdf e6bd d3bf c63c f3ff e23b
000003e0: 4f78 c93d 1aa5 52bd 374a 7fbc b039 cabd
000003f0: f10b 63bc c9b9 103d 5160 8abd 66a9 693c
-0.013932476 0.098699026 0.09088251 0.09286547 -0.18465613 0.043871164 0.0064534782 -0.045141004
0.040248226 -0.17510854 0.06298037 -0.095913164 -0.00730164 0.012058899 0.047784906 -0.049576554
-0.09629187 -0.07957349 0.02335876 0.120753214 0.025513021 -0.14466028 -0.019068845 -0.09779062
0.02042816 -0.0932212 0.15259673 -0.018061278 0.046229813 0.05102163 0.086781844 -0.011069048
-0.08005091 -0.11180898 0.05501091 0.008121 0.13146624 -0.037791178 0.054095384 0.11879631
-0.049779296 -0.07862106 -0.017332966 0.079512335 -0.024663907 0.065822616 0.04829083 -0.0032423344
0.045703135 -0.15095901 -0.07320613 -0.108333796 0.011162734 -0.07310753 -0.0012380055 -0.08588919
0.008637856 -0.060905993 -0.058749508 0.09372262 0.0070968475 0.09831366 0.012086055 -0.15461166
0.05098466 -0.02900908 0.09284382 -0.0063909655 0.12800613 -0.16149338 -0.032010723 0.010282058
0.15247102 -0.08045633 0.020057656 0.010760309 0.087740794 -0.045170147 0.10577763 -0.25607598
-0.0028398777 0.054023676 0.025690172 0.024098197 -0.04190604 0.00914081 -0.020919448 -0.15696007
-0.11395552 0.037421178 -0.18870433 0.03930743 0.064073585 -0.024070056 -0.034133684 -0.000461339
-0.1308838 -0.12428375 0.08762143 0.012718198 0.2313622 -0.13029657 -0.025756093 0.06765407
-0.028627887 -0.08546948 0.057343815 -0.031401373 0.05030135 -0.081830755 0.06684416 0.027872235
-0.03196239 0.022660786 0.002304576 0.20642383 0.05866793 0.033966415 0.046076972 -0.1396777
-0.054318916 0.018581497 0.0805394 0.12589712 -0.09493726 -0.12897533 0.01838523 -0.013896182
0.040200464 -0.0600486 -0.06792569 0.0652225 -0.038907535 0.034294598 0.025781494 0.033465553
0.0114843855 -0.016645765 -0.15563875 -0.12325556 -0.17745805 0.10976176 -0.10083224 0.0494237
-0.111834645 0.052837845 -0.10985697 0.03209925 -0.09185548 0.051339418 0.0071188044 0.07806077
-0.054595847 -0.07563362 0.061570577 0.057193246 0.021995286 -0.08309475 0.06409372 0.03514722
0.060450155 -0.14169025 -0.042146165 -0.03665832 0.10983924 -0.056595977 -0.14393747 -0.10149295
0.08496479 -0.07618315 -0.06409622 -0.048835043 0.09317942 0.021117663 0.102590844 -0.062147
-0.09886636 0.08102116 0.015106642 0.08151816 0.10612875 0.08399058 -0.06518862 0.1335283
-0.019445864 -0.19075026 -0.0573869 0.06367711 -0.07594482 -0.042498402 0.03319433 -0.060293064
-0.01095514 0.08655757 -0.06603365 -0.13788942 0.023580896 -0.17253412 -0.03731565 -0.13582654
0.0057884282 0.100506596 0.17293426 -0.027370512 0.11969762 -0.0009785142 0.050011985 -0.037271205
-0.013348729 0.09785658 -0.06529942 0.07317653 -0.057505753 0.030087957 0.12335483 -0.20134495
0.13350004 -0.015194609 0.13113007 -0.07615947 -0.13480322 0.00035900387 -0.038606655 0.036343254
0.1001865 -0.04452415 -0.11529397 -0.08784627 0.09901258 0.03907257 -0.11199299 -0.04982599
-0.18684688 -0.17411307 -0.016590716 0.15056686 0.17385215 0.16768456 -0.07179927 0.09209429
-0.050158188 -0.054963008 0.18890384 0.081800714 -0.019830747 -0.11273014 0.02426139 0.006927484
0.098374 -0.051426984 -0.015581659 -0.09874284 -0.0138578275 0.03533343 -0.06756652 0.014261579

layer2.bias f4 [123]
00000000: f9f2 b1bd 09af 1e3d 3c37 70bd c53e 52ba
00000010: 2529 90bd d8f8 eebd b501 c63d bfd9 b13b
00000020: ee4f 073c 16bc a03d c1a8 e23c 6d55 d73d
00000030: b596 8b3c 0b60 5d3d b9cb 21bd c5d1 123d
00000040: dc1c 21be 9e51 2bbe 9b61 b03c 54bf 03bd
00000050: e93c c4bd 2f88 573d 11d1 10bc 6f50 4f3d
00000060: caa6 12bd 755f 81bd c03e a5bd 2320 a6bd
00000070: f1f9 5a3d 97d7 05bd a148 9cbd cc64 be3c
00000080: 1bec 3b3d e29f 0fbe df6f 09bb c1dc fbbc
00000090: 130d 8b3d 852e b33d 02fa a23d d2a1 a7bc
000000a0: 003f ddbd aeb3 a9bd aab2 90bd e6f5 273c
000000b0: f9b2 763d 5c2e d33b 0088 7c3d 180a 813d
000000c0: fd62 84bd 97ca a63c e57f 3fbd 7395 be3d
000000d0: 34c9 11be 11dd e7bc 581d 8a3c 1bf2 b13d
000000e0: 41a2 c0bd 35ab 083e 8a1b 4fbd 4bb0 6ebd
000000f0: d4ee 46bc d021 12bd 69cc acbc 08be 9cbc
00000100: d88a bcbd 3458 8dbd 421f ac3d 80ee 7a3c
00000110: 5e31 903b 11ff 1b3b 641a c1bc 03f6 843d
00000120: 7552 46bd 2342 62bd 3863 6dbd fe33 96bd
00000130: 1674 2cbd 5669 ae3d 870c c33c 5c0b e13d
00000140: 7e7d 273b 8c53 13bd 334e 19bd bbc2 63bc
00000150: 8065 d43c d2db 3f3d eb74 93bd 506f 38bb
00000160: c391 16bd 6322 513d c0b9 f43b 616d a6bd
00000170: d044 803d 188d 6d3c 9afc 99bd 606a cb3c
00000180: 1dce 44bd 8372 8dbc 5188 623d e373 a43c
00000190: 64c3 473a 2802 373d 3504 50bd a9e5 00bc
000001a0: 61cc cb3d 90ce a9bd fc22 b1bd 0d69 4c3c
000001b0: 2ad6 533c 25e9 44bd 09ef 053d 0370 c0bd
000001c0: 0130 a8bc df08 6fbd f9db 2d3d 1a8b 323c
000001d0: fa88 58bc e598 ddbd f63b 0e3d be96 4bbd
000001e0: 2a63 fe3c cc48 92bb a21e 71bc
-0.086889215 0.038741145 -0.058646426 -0.00080202176 -0.07039098 -0.11668557 0.09668294 0.0054275687
0.008258803 0.078483745 0.027668359 0.105143405 0.017039636 0.05404667 -0.039500926 0.035844583
-0.15733665 -0.16730353 0.021530917 -0.032164887 -0.0958193 0.05262011 -0.008838908 0.050613817
-0.035803594 -0.06317035 -0.08068609 -0.08111598 0.05346102 -0.032676306 -0.0763104 0.023241423
0.045879465 -0.14025834 -0.0020971221 -0.030744912 0.06789603 0.08749107 0.079578415 -0.020462904
-0.10803032 -0.08286224 -0.070653275 0.010251498 0.060229275 0.0064447355 0.061653137 0.06300753
-0.06464193 0.020360274 -0.04675283 0.09305849 -0.14236909 -0.028303655 0.016859695 0.08688756
-0.094059475 0.1334656 -0.050563373 -0.058273595 -0.012141902 -0.035676777 -0.021093564 -0.019133583
-0.0920617 -0.06901589 0.084043995 0.015315652 0.0044004163 0.0023803154 -0.023572154 0.064922355
-0.04841848 -0.055238854 -0.05795595 -0.073341355 -0.042102896 0.08516185 0.023809684 0.10988495
0.0025556977 -0.03596835 -0.037428092 -0.013901408 0.025927305 0.046840496 -0.07200035 -0.002814252
-0.036760103 0.051058184 0.007468432 -0.08126331 0.06263125 0.014498971 -0.07518883 0.024830997
-0.048048127 -0.017266518 0.055305783 0.02007479 0.0007620363 0.04467979 -0.050785262 -0.007867255
0.099510916 -0.08291352 -0.08649251 0.012476218 0.012929479 -0.048073906 0.032698665 -0.093963645
-0.020530703 -0.05835807 0.04244611 0.010897422 -0.0132162515 -0.10820178 0.034725152 -0.049704306
0.031053144 -0.0044642445 -0.014716776

layer3.weight f4 [82, 123]
00000000: eed0 a73c c4fc b33c 6cbe 023c 9378 5a3c
00000010: dd0c 963c 6485 b83d 5431 6c3d 4786 183c
00000020: 33d1 193d 34d0 493c f5d1 e13c 704b ad3d
00000030: 908b fc3c 8376 73be 8e3c 453e 9177 97bd
00000040: 4097 fbbd 23d6 303e 93f2 773d 4221 eebd
00000050: d1e8 8d3d 3297 fb3c 1fb9 65bd 643f 0f3e
00000060: 16fa fe3c b9bf 773d 9bd3 e33c f172 633c
00000070: 2763 c33b 7d38 243b 3840 94bd dd19 3abd
00000080: e652 81bc 76ac ae3b e7fd 193d c688 02bc
00000090: 8180 213e 6efb cc3d 823f 3f3d cbd4 893d
000000a0: fbe8 673d 8c02 dfbc dab8 8dbd bb74 bf3c
000000b0: 9098 093e 078f 34be 993b 163e dcdf 103e
000000c0: c197 d2bd 7574 fd3d 458b 2cbe 9668 b53c
000000d0: 2653 fabd 1b91 62bc 10d8 0dbe 614e 113d
000000e0: 1035 ca3d caa5 be3c a03f 993d ab4b c4bd
000000f0: 3804 983b 449d fa3b fb70 b73d 9760 b63d
00000100: bca1 f33d 6d70 3bbc a75b 18bd 6035 36bb
00000110: 1169 953d 23de bdbd 644d 6ebd 274e eebc
00000120: faa6 ed3d 252b 1a3d 1f94 bd3a edb8 a2bd
00000130: 2bf3 f2bd 4d8e b0bc a19d a43c 16e8 ba3d
00000140: 2661 1cbc 6615 07bd d811 8c3b 1b74 9fbe
00000150: c34e 733c 7ed1 2c3d a956 2bbb be2b 263d
00000160: 5428 b2be 17f9 18bd be9d fb3d 1afd 12be
00000170: c15f e13d 197a 993d 6095 24bd 821b 203d
00000180: d307 b8be 4b27 163e 3a38 a23d cfd3 d23d
00000190: 8de0 07bd b098 643c 27c1 e63b 5f7c 823d
000001a0: 8494 bd3d 3339 6bbd 2089 b43c 4901 c83b
000001b0: be3c af3c 41cb eebc 006a b73c 8c58 49bd
000001c0: 0db9 90bf 400b 47bc 8d46 903c 8d30 cabb
000001d0: ef75 1bbe 9c7a c4bd 1e3a 663d 0efe 79bf
000001e0: d933 1fbc 212c f73c 22e8 59bc 54f2 033d
000001f0: 8760 bcbd 88ac bf3d fa2b 7cbd aadf acbd
00000200: ff7e 81bd 1331 d03d 15ee 66bb d3c7 89bd
00000210: fc47 243d a72d 8c3b 456b 0fbe 3030 81ba
00000220: fc80 eebd f1f7 bdbb ab7f f1bd e374 05be
00000230: e540 87be fce3 0cbe 4b52 f83c 9b94 2b3c
00000240: ce12 083c 2eed cd3a 9e00 71bd 7b73 863d
00000250: 5b39 05bf 16cb 613d 2f75 bcbe 71c2 b7be
00000260: ebce e8bc 1be7 e1be 3c60 91bb a32c cebc
00000270: 007e b2bd 5d7a ef3d 4272 693d 5f3f 4abd
00000280: 3897 afbe 4e18 2abd 3c54 80be c1d9 49bd
00000290: 625c afbd 2feb 003e d0e5 6abd 0312 303c
000002a0: 37bd 8a3c 12f1 00bc e0c4 36be 0870 133e
000002b0: fb2c 48be 3c03 433e 780f 30be e9b4 96bd
000002c0: f2f6 2e3e 7ae7 2f3d f855 b6bc eb58 8ebd
000002d0: c836 4bbe 1a21 873e 4f49 ae3d f5c1 1fbe
000002e0: 9309 e83d 7e19 a2bd a7fa b83c 1364 1e3e
000002f0: 651d d23c e5d2 193d e96d b2bd ae74 e2bd
00000300: cb8f 8a3d fcf9 c33d a021 e3bc cd3e c03d
00000310: d271 853c fb6f c2be 9965 7b3a 302a a03d
00000320: dcbc e73d e253 1fbe 88b9 073e 1463 2e3d
00000330: 282a f23d 93d1 443e 900f 72bd 0bc5 8b3c
00000340: 1442 74be f51d 88be 9ffb 40be 2499 f63c
00000350: 7fe1 54be 5085 3e3e 0100 4c3e ef05 283e
00000360: d61c b1be 73bf 3d3e 8b29 ad3c 6fdd 033e
00000370: 2f1b d4be a6a0 b3bd c1fb e03d fc5a ba3d
00000380: b990 4f3c a642 e8bd 39f0 16be a6bd e73c
00000390: 8380 213b 64be 09bf 3a51 14bc 7a97 26be
000003a0: 75a0 0a3e 8c8a e7bd 5de6 f5bc 5333 0fbe
000003b0: bc5d 043e 4021 d7be 636c 383e 6589 61be
000003c0: b1f0 d4bd 04f3 4abe b33c ecbe d8a1 153e
000003d0: 8b61 21bd 8a05 913d 57b3 723c b578 733d
000003e0: 9aab 59bf 926b 433d 27b1 41bd 652c 2c3c
000003f0: 810b 243d 2ffa 62be fe75 843c 05a1 b5bc
0.020485368 0.021971114 0.00797997 0.013334411 0.01831668 0.09009817 0.05766423 0.009309358
0.037553024 0.012317706 0.027565936 0.08461654 0.030828267 -0.23775677 0.19261381 -0.07395852
-0.12284708 0.17269187 0.06053407 -0.11627437 0.06929172 0.030711744 -0.05608475 0.13989025
0.03112511 0.060485575 0.027810862 0.013882385 0.0059627476 0.0025058084 -0.07238811 -0.04543482
-0.0157866 0.0053306175 0.037595656 -0.00796718 0.15771677 0.10008894 0.046691425 0.0673004
0.056618672 -0.027222894 -0.06920023 0.023371091 0.13437104 -0.17632686 0.14671172 0.14147896
-0.10282851 0.12375728 -0.16850002 0.022144597 -0.122228906 -0.013828541 -0.13851953 0.03547514
0.09873402 0.023272414 0.07482839 -0.09584745 0.004639175 0.007648142 0.08957096 0.08905142
0.11896083 -0.011440379 -0.03719678 -0.002780281 0.072954305 -0.09270885 -0.058179274 -0.02909
0.11604114 0.037638802 0.0014463699 -0.07945428 -0.11862787 -0.02155223 0.020094695 0.09126298
-0.009544646 -0.03297939 0.004274588 -0.3114327 0.014850321 0.042191975 -0.0026144183 0.04056906
-0.34796393 -0.037346926 0.12285946 -0.14354363 0.11004592 0.074939914 -0.040181518 0.039088733
-0.3594347 0.14663427 0.079208806 0.102943055 -0.033173133 0.013952419 0.0070420685 0.06371378
0.09256843 -0.057427596 0.022038043 0.006103669 0.021391269 -0.029149653 0.022389412 -0.04915671
-1.1306473 -0.012148678 0.017611766 -0.0061703385 -0.15181707 -0.095936984 0.05620777 -0.9765328
-0.009716951 0.03017241 -0.013299974 0.032213524 -0.09198099 0.093590796 -0.061565377 -0.08441098
-0.06323051 0.1016561 -0.0035237123 -0.067275666 0.040107712 0.004277903 -0.14005764 -0.000985628
-0.116456956 -0.005797379 -0.11791929 -0.1303287 -0.26416698 -0.13758844 0.030312678 0.010472442
0.008305265 0.0015710944 -0.05883848 0.06564995 -0.5204064 0.05512532 -0.36808154 -0.35890535
-0.028418979 -0.44121632 -0.004436521 -0.025167769 -0.08715439 0.11693261 0.05699373 -0.04937684
-0.34295058 -0.041527085 -0.25064266 -0.049279932 -0.085625425 0.12589715 -0.057348073 0.010746482
0.016935928 -0.007869976 -0.1784854 0.14398205 -0.19548409 0.19044203 -0.17193401 -0.073587246
0.1708639 0.042945363 -0.02225779 -0.069505535 -0.19845116 0.26392442 0.08510076 -0.15601332
0.11329951 -0.079150185 0.022580458 0.15467863 0.025648782 0.03755464 -0.0871237 -0.11057411
0.067657076 0.09569165 -0.027725995 0.09386978 0.016289625 -0.3797606 0.00095900294 0.078205466
0.11315319 -0.15559343 0.13254368 0.042574957 0.11824447 0.19220571 -0.059096873 0.01706173
-0.23853332 -0.26585355 -0.18845986 0.03010232 -0.20789145 0.18605542 0.19921876 0.16408513
-0.34592313 0.18530063 0.021137973 0.12877439 -0.4142699 -0.08770876 0.10985518 0.09099385
0.012668782 -0.11340837 -0.14740075 0.028288674 0.002464325 -0.5380614 -0.009052569 -0.16268721
0.13537772 -0.113057226 -0.030017072 -0.13984422 0.12926382 -0.42017555 0.18010096 -0.22025068
-0.10397471 -0.19819266 -0.4614006 0.1461252 -0.039399665 0.070811346 0.014813266 0.059441287
-0.8502747 0.04771001 -0.047288086 0.010508631 0.040050033 -0.2216575 0.016169544 -0.022171507

layer3.bias f4 [82]
00000000: 47d8 02bd a0fc 3f3d 706c ac3a f90a a6bc
00000010: af2d 883a 4e12 cbbc c2b2 16bc 8168 0cbb
00000020: dacb db3b 24d3 20bc 4811 903b 2bd6 fe3b
00000030: c7ae dc3c 76b7 37bd 9c26 26bc f247 bcba
00000040: 52df 91bc dfd5 e43b bf9e 073c 905e f0bc
00000050: b6f5 edbb c4c5 8c3c ed9f 6abc f165 15bc
00000060: cac5 ef3a 2c08 35bb 1cbe 493c 6dcd a2bc
00000070: 4c9c 29bc 0858 9c3b 0cce 033c 8eeb 3fbc
00000080: 6345 adbc 7ef8 73bb 5ef0 6b3b eac7 de3a
00000090: 4a96 bf3b 8c3c ea3a ab74 a83a 2c0c 583c
000000a0: 0681 7f3b 6ab3 85bc dd20 c0bc 845e 97bb
000000b0: 2c36 adbc 9cd8 d7b9 4ef2 f03b b492 e03b
000000c0: 82db 07bc 1f7e f73b f00c 27bd 6cce f7bc
000000d0: dc85 ddbc aa31 bdbc f7a4 cc3b b959 31bc
000000e0: a825 33bd 1821 a4bc 0bf7 04bc f9e7 c6bc
000000f0: 5d8f 53bb 7a1c d8bc b280 583b 04d7 71bc
00000100: fac0 3fbc 20d1 2abd dc36 bbba 2754 1bbc
00000110: 9a08 943b 5c6c cbbb 2247 853b 20e7 59ba
00000120: 883a 9dbb eba5 a53b e70c f8b9 0999 a93c
00000130: 8160 dc3b c668 153b b4c5 debb b460 65bb
00000140: 35d7 40bc 10d1 403a
-0.03194454 0.04687178 0.0013154875 -0.020268904 0.0010389591 -0.024789002 -0.009197893 -0.0021424594
0.0067076506 -0.009815965 0.0043965913 0.0077769957 0.02693881 -0.044852696 -0.010141041 -0.0014364703
-0.017806683 0.0069835032 0.008277594 -0.029341966 -0.007261957 0.017184146 -0.014320356 -0.009118543
0.0018293199 -0.002762328 0.012313392 -0.019873345 -0.0103522055 0.0047712363 0.008044731 -0.011713875
-0.02115125 -0.003722697 0.0036001424 0.0016996835 0.0058467733 0.0017870828 0.0012852153 0.013186496
0.0038986816 -0.016320903 -0.02345317 -0.0046194214 -0.021143995 -0.00041169382 0.0073531037 0.006853426
-0.008292081 0.0075528766 -0.040783823 -0.030249797 -0.027041368 -0.02309497 0.0062452513 -0.010824614
-0.043737084 -0.020035312 -0.00811554 -0.024280535 -0.0032281496 -0.026380766 0.0033035693 -0.014760736
-0.011703724 -0.041703343 -0.0014283317 -0.009480513 0.004517627 -0.006207986 0.0040673176 -0.00083123334
-0.0047982372 0.0050551794 -0.0004731186 0.020702856 0.0067253713 0.0022798046 -0.0067984704 -0.0035000267
-0.011770059 0.00073553715

layer4.weight f4 [82, 82]
00000000: 8f68 613d 7d9e 873e 0854 d33d ac3d 54bd
00000010: dd77 22bd d706 c8bd b0ef 053e 222d b33c
00000020: be41 53be 432c ec3d 133d 7f3e 18a6 0dbd
00000030: bff7 0fbe f2e9 3a3d e233 f9bd 2d15 8b3d
00000040: b191 e33d 52e5 d2be e137 b3bd 9aff bd3d
00000050: 42e9 8fbd ceef ea3c 4c9e a23d 922e 163e
00000060: 0555 3d3e 14c6 a23e e87a 1dbd ac33 323d
00000070: 468b 20bd 4608 2a3e ccb7 823d 9df1 9abc
00000080: 3882 cfbd 3b1f 81be 711d 47bd c1cc 3c3c
00000090: f7e6 3dbe 5900 b1bd 7a53 583d 95cf efbd
000000a0: ce97 f23c 13e2 a0bd a595 12bf 98bd cbbd
000000b0: 151e 143d 79f8 8dbd ea59 fa3d 865a 263e
000000c0: cfc6 81bd c1af 703e 6ec3 dc3c 8c91 ff3d
000000d0: ddc6 a6be 62b2 9f3d 86c1 b3bc 885b 063e
000000e0: 2765 38bc 6b22 883d 656f 203e 89b9 053e
000000f0: fa9a 353e 388e 873d 681b 4b3e 4043 83bc
00000100: 78ce 8cbe 7e03 19be 8b0b 9d3d c859 8fbe
00000110: 273d 8b3d ed5e 3a3b 8dee dd3e 48f1 67be
00000120: 443d 2e3e fe3a 31bd 479a 803e bca5 eabd
00000130: 7107 87bd 0755 c4bd 0f33 00bf c150 0e3e
00000140: b640 2b3e b0cc 1abe ffdf c2be 8e9d 833c
00000150: 9cbe febd 998d 453e 7e07 d73d c378 c23e
00000160: 5d1a d2be 134d 48be 56f7 b93e 6ef7 a8bd
00000170: ecc3 6e3d 64a9 e1bd 0e05 b9ba 06e4 7fbb
00000180: 6be6 ab3d 7b8d aebe 7a25 46be 09c6 463d
00000190: 64b5 8f3e 0f5b 183c 5b99 98be 9585 8abe
000001a0: 890a 933d fcbd 13be eeea 58be fec8 cabe
000001b0: 4585 e63e 33fa 06bf ce54 19bf b0be 81bf
000001c0: 282c 8dbd 9c88 12be baf3 bd3c c39d 69bd
000001d0: 94d2 babe e88c aebe d4a9 75be 6e18 b6ba
000001e0: 9fcd b7be 7645 aebe 0047 533e 1f07 813e
000001f0: 6ed2 35be 95b8 b3be 7f90 14bc 2497 693e
00000200: 4341 60be 47fb 6bbc 5991 143e e986 823e
00000210: 12eb d5be 18aa 09be c6fd 293e d42b f9bd
00000220: 17d5 a6bd 1f8e 97be 9ea4 4a3e 0d28 c03d
00000230: 040a db3d d310 a3bd 29dc e5ba 2bf1 38be
00000240: 44f0 17bf 81f6 e7bd 9b43 65be 4706 86bc
00000250: 288b 1abf 9b32 b93d fd9a 9dbe fad5 55be
00000260: ecbd 983e 12bf cc3e 0895 a93d 7225 9cbe
00000270: f250 00bd 2080 33be e5fa 933d c1bb 9e3e
00000280: df6c 3c3d 2871 8bbe f59a 903e e0e5 533e
00000290: 7d5b bf3d ef12 a1bd 2269 5f3c 1539 033e
000002a0: c8f4 cebd 9b06 9abe a8aa 7d3e 1532 bb3c
000002b0: aed9 ab3e c406 713e 44a1 91bd 1735 a4bd
000002c0: ca3e 2a3d f20a 2d3d 7ca6 383d 5e99 41bd
000002d0: 3ba9 823d da65 8cbe 0ae4 24be 3f4c 4e3e
000002e0: 5671 a23d 845e 75be 943e 0cbd 39d5 ce3d
000002f0: 9139 263d bbf9 d23d eb55 983e f24a 303d
00000300: f5f4 183e b2c5 bdbd fde5 953d 8ecf 89bb
00000310: f685 ffbd 3995 ca3d c2b8 533d fd44 3fbd
00000320: 1898 2dbd 62f5 483d f1b6 953d 9c15 9ebc
00000330: 0717 df3b 910e 9e3c 9dc5 573e 908e 11bd
00000340: f960 583d 402b 053f 5267 8bbd 910c a0be
00000350: c56c 513e e5f9 c8bd 8cb0 703d d76d 2b3e
00000360: de9b 773e 2551 88bd 8e8e 213d 1579 573e
00000370: 1967 0cbd 0ca0 32bd de83 1e3c 85f5 b83e
00000380: 3e24 a8be 7368 c93e ca7a 80bd 9bce 76be
00000390: 7405 5d3e 0555 613e ec27 573d 1412 a2bc
000003a0: ca37 653d 39e1 ce3d 487e c1be 90f7 a33d
000003b0: 472a b13e 6701 82be cc5f a2be 1d24 2ebc
000003c0: 2bd0 243d b786 fa3d e745 21be 7f62 c83d
000003d0: a433 713d 90bd 6ebe cc2b 7dbd 11b8 0a3d
000003e0: 94a2 91bd c479 45be e411 f6bd 4fd8 79be
000003f0: 9282 0dbf 0f21 4c3d cfaf a2be 5180 c3bd
0.055031355 0.26488104 0.10318762 -0.051816627 -0.03966509 -0.097669296 0.13079715 0.021872107
-0.20630547 0.1153188 0.24925642 -0.034582227 -0.14059351 0.045633264 -0.12168099 0.06791148
0.11111773 -0.41190583 -0.087508924 0.09277268 -0.07026912 0.0286788 0.07940349 0.14666203
0.18489464 0.31791747 -0.03844729 0.04350631 -0.03919532 0.16604719 0.06382713 -0.018914038
-0.10132259 -0.2521914 -0.048612062 0.0115234265 -0.18545137 -0.086426444 0.052813984 -0.11709515
0.029613402 -0.0785562 -0.5725959 -0.099482715 0.0361615 -0.06932158 0.12224181 0.1624547
-0.06336748 0.23504545 0.026948657 0.12478933 -0.32573596 0.07797696 -0.021942865 0.13120854
-0.011254585 0.0664719 0.15667494 0.13059057 0.177349 0.06618923 0.19834673 -0.016023278
-0.27501273 -0.14942738 0.07668217 -0.27998185 0.06798773 0.0028437928 0.43346062 -0.22650635
0.17015558 -0.04326915 0.25117704 -0.114573926 -0.06593216 -0.0958653 -0.5007791 0.13897993
0.16723904 -0.15117145 -0.3806152 0.016066339 -0.124386996 0.19292296 0.10499476 0.3798276
-0.4103574 -0.19560651 0.36321515 -0.082503185 0.058292314 -0.11018637 -0.0014115886 -0.0039045825
0.08393558 -0.34092316 -0.19350234 0.048528705 0.28068078 0.009299054 -0.298045 -0.2705504
0.07179744 -0.14427942 -0.21183369 -0.3960647 0.45023552 -0.52725524 -0.59895027 -1.0136318
-0.06893188 -0.14309925 0.023187507 -0.05703522 -0.36488783 -0.34091878 -0.23990566 -0.0013892779
-0.35899064 -0.3403737 0.20632553 0.25200745 -0.17756054 -0.35101762 -0.009067654 0.22811562
-0.21899895 -0.014403171 0.1450857 0.25493553 -0.41780907 -0.13443792 0.16600713 -0.12166563
-0.081461124 -0.29600617 0.19789359 0.09382639 0.1069527 -0.07962193 -0.0017536926 -0.18060748
-0.5935099 -0.11326314 -0.2238907 -0.016360415 -0.60368586 0.09042855 -0.3078231 -0.20882407
0.298324 0.39989525 0.082803786 -0.30497319 -0.031327195 -0.17529345 0.07225589 0.3100262
0.046002265 -0.2723477 0.28243223 0.20693159 0.09343622 -0.078649394 0.013635905 0.12814744
-0.10105282 -0.30083165 0.24772131 0.02285103 0.33564514 0.23537737 -0.07110837 -0.080179386
0.041563787 0.042246766 0.045080647 -0.047265403 0.063799344 -0.27421457 -0.16102615 0.20146273
0.07931773 -0.23961836 -0.034239367 0.10099263 0.040582243 0.103015386 0.2975305 0.043040223
0.14937194 -0.09266223 0.073192574 -0.0042056506 -0.12476723 0.09891743 0.05168987 -0.04669665
-0.042381376 0.04906214 0.07310284 -0.019297414 0.006808165 0.019294055 0.21071477 -0.03553635
0.052826855 0.5201912 -0.06806816 -0.31259587 0.20451649 -0.098132886 0.05876212 0.1674112
0.24180552 -0.06656102 0.03944259 0.21042283 -0.03427801 -0.043609664 0.009674994 0.36124817
-0.3284015 0.393375 -0.0627342 -0.24102251 0.21584111 0.22005089 0.052528307 -0.019784011
0.055961408 0.101015516 -0.37791657 0.08006203 0.34602568 -0.25391695 -0.31713712 -0.010628727
0.040237587 0.12232726 -0.15749322 0.09784412 0.05888714 -0.233145 -0.061809346 0.033866946
-0.071110874 -0.19284731 -0.12015131 -0.24398921 -0.5527736 0.049836215 -0.31774756 -0.09545959

layer4.bias f4 [82]
00000000: aa70 ea3a 82f9 b43b 2ea9 00bc 878b 813e
00000010: 418a 373d 0e6e 903c 9779 9a3d b00a cf3d
00000020: f1a4 2b3d 97a7 863d e527 6c3d 9d0f 6b3d
00000030: c603 b63d 3fe8 8c3d b0c9 da3b 9220 473e
00000040: 7b53 903c b929 053d bac0 b53e 0ae6 a13a
00000050: 72c4 653c b644 943c ded3 923c 951f 033e
00000060: 9a80 b03b 6c71 153c b846 823b c589 e93c
00000070: 610d f53d 553b 913d a8ea 823b efb2 033b
00000080: 6b20 1dbc 8e21 52bc 773d b03d 7dae 823c
00000090: 353f 403d 1899 7a3c cc04 e03c 95c6 af3c
000000a0: bda7 debb bbcf 5e3d dbdc 1d3c 494a 3f3c
000000b0: ea74 453d 2b38 1e3e 1183 7e3e 85f4 bd3d
000000c0: 7624 b23b e7c0 c53b 0df4 2a3c 8ba0 50bc
000000d0: 0727 d03d f3f8 113b 8e93 8f3d 0a10 25bc
000000e0: 38fe cfbc 958d e83b c6db 9c3d cd08 a4bb
000000f0: b534 11bc 4d5b 293c be74 bb3b b85a 533c
00000100: cdf3 12bb f07f ef3b 6373 743e a12f 2e3d
00000110: 7e2b 993c 95b2 50bd 912d 653c 0464 1ebd
00000120: be56 2b3e acbd 4d3d f6e2 2f3a c2a8 393c
00000130: 3fc5 f03a 876f 953c f457 163c 33ac d03d
00000140: aead 02bc f102 b73c
0.001788636 0.0055229077 -0.007852836 0.25301763 0.044809584 0.017630603 0.07542723 0.1010946
0.041905347 0.06574934 0.057655234 0.057387937 0.088874385 0.06880235 0.006676875 0.19446018
0.017617932 0.032510493 0.354986 0.0012351882 0.014023887 0.01809917 0.017923292 0.12805016
0.0053864243 0.00912128 0.0039757155 0.028508076 0.119654424 0.07091395 0.0039952584 0.0020095666
-0.009590249 -0.012825383 0.086054735 0.015952343 0.04693528 0.015295289 0.027346037 0.021456996
-0.0067948983 0.054397326 0.009635176 0.011675426 0.0482072 0.15451114 0.24854685 0.09275154
0.0054364754 0.0060349586 0.010434163 -0.012733589 0.10163694 0.002227363 0.07010566 -0.010074625
-0.025389776 0.007096956 0.07659106 -0.005005932 -0.008862664 0.010336709 0.005720704 0.012900047
-0.0022423149 0.0073089525 0.23872142 0.04252589 0.018697497 -0.05095156 0.013987915 -0.0386696
0.16732308 0.050229713 0.000670954 0.011331739 0.0018369331 0.018241657 0.009176243 0.101890944
-0.007975979 0.02234027

layer5.weight f4 [41, 82]
00000000: cd07 203e ef95 0dbf 97c0 d7bd f9fb 803d
00000010: e85b 46bc a323 25be e824 d43d 93f5 24bc
00000020: 25cd 26be 006a cabb 01a4 203d 90d3 a2bb
00000030: 4701 b2bc ffb0 973b a047 d0bf 3464 033e
00000040: df7a 253e edd1 03bd 9099 f63c 1443 2b3e
00000050: 3f3e a4bd 18f1 c33e 524b 7fbe 414f 2a3e
00000060: 43b4 a3bb 2f08 80be 72d3 c0be 02ea 1e3d
00000070: 5ec6 053e baf4 d63d 5712 453e 784c ebbe
00000080: 8a63 1cbe cfbf 903c b3ab a9bb d5d5 0ebe
00000090: 2d98 283e cafa 93be e367 083e 5026 31be
000000a0: 965d aebd 381b 923d 3d2f 18be 395e a8ba
000000b0: 6f6d 0e3e 4765 073e fdd9 fd3d 177b b3bb
000000c0: 8918 703d d2aa 103e ebff 36be 1869 3c3e
000000d0: 81f4 adbd 5171 bfbe 2ddc 1abd a270 033e
000000e0: 4d00 d23b 9125 92be 491c 4e3d f4ee 513e
000000f0: 5b33 3bbe 01d7 4dbf 435b f83c 954a 2abf
00000100: fa49 983e 3783 64bd 7610 f0bc 6a17 cd3e
00000110: 486d 47be b8dd a5bc 1177 d5bf 3d6a 823d
00000120: 770f 8ebd d3cc a93d b887 393d 0542 bbbd
00000130: 7c8c 18be ff9a 29bf 7b4a adbc 310e b23d
00000140: c97a 03be 1b4a 833e a3da 6d3d 2144 403c
00000150: 7cf0 003d 7cfe d93d 5764 38be c022 2dbe
00000160: 19bc b23d 89c2 7b3d 7743 9a3d f997 06be
00000170: 4313 263d bcd1 17be 9642 dcbd c653 a0bc
00000180: ffe5 3b3e 7eac e43d 56cc 5b3d 5f8d f9bd
00000190: 8936 bc3d 5c0f 64bd 89d4 233e 982e 98be
000001a0: 2262 e93d 4c60 dfba 5f8a 0fbd 40ba 813e
000001b0: b511 013e 7e8c c0bd a120 a1bd 5387 ea3c
000001c0: 4e42 98bd 0161 22be c606 8b3d 957d 83be
000001d0: 10f1 15be 9a16 5abe 7609 97be a205 3bbc
000001e0: 6a9e 2abe 1a10 113e ec66 2ebe 50b0 d53c
000001f0: 1bd1 2b3e 681e dcbd f05f a03d fb98 16be
00000200: 75a3 803d 8de2 be3d bcc9 283e 0327 943d
00000210: 7eb8 91be fef3 0cbe 5fa2 14bd 1afa 99bc
00000220: a9d5 853d 8548 2bbd 9392 003e f02f 193e
00000230: d9c4 8dbd 96b5 82bd d463 0d3d 9eb1 543e
00000240: 8a5d d7bc b57b 91bc e3de 9b3b 4cbb 95bd
00000250: cea8 5eba 091b 133e fb7d 4abe f70e 97bd
00000260: 923b f2bd c8a1 f3bd 8eba b2bd fd95 a9bc
00000270: be10 49be 05b4 8a3d c932 dfba 8d5c be3c
00000280: 43ce 473e d36b c43c 8ceb 0b3d 66b7 23be
00000290: 0eac cd3d 24aa 92bf 4874 3cbe e675 043e
000002a0: 14d1 ef3d 1018 85bc 3b35 b3bb 9b95 613d
000002b0: aadd 10be 0ff0 583d 6a06 e73c 653a 1dbe
000002c0: 7505 cc3c 8577 a0bc 8063 91bf 83f4 113e
000002d0: 3fb5 7c3e 02b6 66bd 82ac 9e3d b304 e93d
000002e0: 2577 dabb 29cb 943e f5c4 e3bd 9552 9bbc
000002f0: 01bf bbbe 850d 26bf 36e3 1fbe 505b 113e
00000300: b588 793d 099b 733c fc73 9a3d 72aa 44bf
00000310: e5b2 29bc 6472 183e 4455 30bd b188 f9be
00000320: 0439 ad3e c163 96be 526f 133e 67a9 b0be
00000330: 3c6f 7a3d 230a adbd 866a 07bf af72 5c3c
00000340: 5b2b 20be e96f 103d f8e4 03bc c4d8 073e
00000350: ad1c b1bc 88fa 853e b7ed d4bf 54f4 8d3d
00000360: 6513 9e3d e752 18bf 8ced 173e 6edb 943e
00000370: f32d 6ebe 9af1 c1be ecc3 debd e184 aa3d
00000380: e3ef 24be 05f1 a4bf 0b4e 043d a3b7 efbe
00000390: d6cc e53d 6fc2 8bbe 4cb8 053e b67d 8e3e
000003a0: 7c4e 0f3c 1776 6b3d 59fa 19bf 79cd 253e
000003b0: 1112 64bc 68a4 8fbd e785 ae3d c769 283d
000003c0: e893 fdbe 492f 8ebe 2293 22bf 5a17 0a3e
000003d0: 787f 1bbe ecb2 503e 974b 4bbd cc4a a03e
000003e0: 373e b03e 7c07 b73c 8939 f13d 531f e63e
000003f0: 4837 f73d b0c2 69be b482 5a3e a9e2 263d
0.15627976 -0.55306906 -0.105347805 0.0629806 -0.012106873 -0.16126876 0.10358602 -0.010068315
-0.16289194 -0.006177187 0.039218906 -0.004969068 -0.021729125 0.004629254 -1.6271858 0.12831193
0.16160153 -0.032182623 0.030102521 0.16724807 -0.08019685 0.38269877 -0.24931076 0.16631795
-0.004995854 -0.25006244 -0.3766132 0.038797386 0.13063952 0.10495897 0.19245277 -0.4595678
-0.15272346 0.017669586 -0.005177939 -0.13948758 0.164643 -0.28902274 0.1332088 -0.17299771
-0.08513944 0.07134098 -0.1486177 -0.0012845463 0.13908933 0.13222228 0.123950936 -0.00547732
0.05861715 0.14127663 -0.17871062 0.18399465 -0.08493901 -0.3739114 -0.037807632 0.12835935
0.0064087273 -0.28544286 0.050319944 0.2050131 -0.1828131 -0.80406195 0.030316954 -0.66520053
0.2974394 -0.0557892 -0.029304724 0.40056926 -0.19475281 -0.020247325 -1.6676961 0.063679196
-0.069365434 0.0829102 0.045295447 -0.091434516 -0.1489734 -0.6625213 -0.02115368 0.08694113
-0.12839808 0.25642475 0.058069836 0.011734993 0.031479344 0.10644242 -0.18007027 -0.16907787
0.08727283 0.06146482 0.07532399 -0.1314391 0.040545713 -0.14826101 -0.10754888 -0.019571196
0.18349455 0.11165713 0.053661667 -0.121851675 0.09190089 -0.05567871 0.15999044 -0.29723048
0.113956705 -0.0017042249 -0.03504407 0.2533741 0.12604411 -0.09401797 -0.078675516 0.02862898
-0.074345216 -0.15857317 0.06788401 -0.2568175 -0.1464274 -0.21297684 -0.29499406 -0.011414917
-0.16661993 0.14166299 -0.17031449 0.026085049 0.16778986 -0.10747987 0.078307986 -0.14706795
0.06281177 0.09320555 0.16483206 0.072340034 -0.2846107 -0.1376495 -0.03628766 -0.018796016
0.06534893 -0.041817207 0.12555914 0.14959693 -0.06922311 -0.06382291 0.03451903 0.2077088
-0.02628972 -0.017759183 0.004756795 -0.07311115 -0.0008493782 0.14365782 -0.1977462 -0.07375901
-0.118277684 -0.11896092 -0.08726989 -0.020701403 -0.19635293 0.06772617 -0.0017028685 0.023237491
0.19512276 0.023977196 0.034160182 -0.1598793 0.100425825 -1.1458173 -0.18403733 0.129356
0.117098 -0.016246825 -0.005468992 0.055074316 -0.14147058 0.052963313 0.0282013 -0.15354307
0.024904946 -0.019588241 -1.135849 0.1425343 0.24678515 -0.05632592 0.07747747 0.113778494
-0.006667035 0.2906125 -0.11121551 -0.018960277 -0.36669162 -0.6486438 -0.15614018 0.14194989
0.06092139 0.014868506 0.075416535 -0.7682258 -0.010357593 0.14887387 -0.043050066 -0.487371
0.33832562 -0.2937298 0.14397934 -0.34504244 0.061141238 -0.08449199 -0.52896917 0.013455077
-0.15641539 0.035262976 -0.008050196 0.13266283 -0.021620119 0.26167703 -1.6635045 0.069313675
0.07718543 -0.595015 0.1483671 0.29073662 -0.23259716 -0.3787964 -0.10877213 0.08326126
-0.16107135 -1.2886053 0.03230099 -0.4681979 0.1122071 -0.2729678 0.13058585 0.27830285
0.0087467395 0.057485666 -0.60147625 0.16191663 -0.013920323 -0.0701378 0.085216336 0.041116502
-0.49526906 -0.2777045 -0.63505757 0.1348547 -0.15185344 0.20380753 -0.049632635 0.31307065
0.34422466 0.022342436 0.11778552 0.44945773 0.12071091 -0.22828174 0.21338922 0.040743504

layer5.bias f4 [41]
00000000: 0c77 00bc 76fe 0fbd d0f7 0e3e 0ec6 05bd
00000010: 4d23 2b3e 7b7e 18bd f9a0 6f3d 0c8e 0f3d
00000020: 645e e2bc d04a ac3d db97 c83d 4f8a 5d3e
00000030: 2dc3 d83c 7571 1d3e c3a0 b13c 8c63 18be
00000040: dcac 3cbb 230d 2dbb 96b1 163e 4fc1 adbd
00000050: 1765 b73d a1e1 1abd 90c8 e63d 29c7 d9bd
00000060: e43b 153e 02fd e93d 89f5 053d 5606 ab3d
00000070: 1961 eb3c 00f5 f1bb c6bb b3bc 5fa7 003d
00000080: 1d5f 2b3e 69a1 0ebd f8a9 e33d 5352 26bc
00000090: a93f b2bd 4a23 22bc 4679 803d 22a3 983d
000000a0: e9c5 aabc
-0.007840883 -0.035154782 0.1396172 -0.032659583 0.16712685 -0.037229996 0.058503125 0.035047576
-0.0276329 0.08412707 0.09794589 0.21634792 0.026460255 0.15375312 0.021683102 -0.14881724
-0.0028789556 -0.0026405535 0.14716181 -0.08484136 0.08954828 -0.037812833 0.11268723 -0.1063369
0.14573628 0.114252105 0.032704864 0.08350818 0.028732823 -0.0073839426 -0.021940123 0.031409618
0.16735502 -0.0348219 0.11116403 -0.010151464 -0.087035485 -0.009896109 0.06273131 0.0745299
-0.020846324

layer6.weight f4 [1, 41]
00000000: a1c6 d5be c967 153f 9768 b3be 72b9 fa3e
00000010: 3148 ed3e 4d3a 9ebe 916c a5be 822e 89bf
00000020: 929f 88bf 5008 a6be c143 c43e da84 c43e
00000030: 25e7 a4be 8bb3 85be 7ed0 99be bdba b33f
00000040: 3233 f13e 6f1d 99be 972c 85be 7ea2 e8bd
00000050: 1f13 783f beb2 d73e 7aed 83be cb76 cf3d
00000060: f52b d63e c8c6 30bf ffa6 c93e 49a6 b23e
00000070: 7b1d c2be 0154 4d3f d6c1 8c3c 7853 f53e
00000080: 6c51 bfbe db36 85bf 9532 35bf a993 cbbe
00000090: 8812 313f 3636 ec3f 148a bebe 0e71 c2be
000000a0: 8687 bebe
-0.41753104 0.5836149 -0.35040733 0.4896961 0.4634414 -0.30903855 -0.32309392 -1.0717318
-1.0673697 -0.32428217 0.38332942 0.38382608 -0.322076 -0.26113543 -0.3004188 1.4041363
0.4710937 -0.2990527 -0.26010582 -0.11359118 0.96904176 0.42128557 -0.25767118 0.1013008
0.41830412 -0.69053316 0.3938522 0.3489249 -0.37913117 0.80206305 0.017182272 0.47915244
-0.37366807 -1.0407366 -0.7078031 -0.39761093 0.691689 1.8454044 -0.3721472 -0.3797688
-0.3721277

exp_avg f4 [123, 41]
00000000: 0d2e 6d38 fe2b 60bb f643 97bb 809e f139
00000010: 0d42 04bc bfab e93a 2751 e93a 56b8 043c
00000020: e0eb 1a3b 3a27 0db9 5a1e b33b cb8d 023c
00000030: 1552 173c f7d3 fd3b 812e 123c b062 44b8
00000040: a429 b53b bcaa de3b 3883 8db9 fd24 b2ba
00000050: c2bc ef3b 3fa6 df3b 6bc8 043c 8c11 073c
00000060: 775b 82b9 a4d5 143c 4b7e e53b 2b98 3d3b
00000070: ff2e 5aba 260f 0c3c a67a 8f35 1b90 5fba
00000080: 2680 233b 1087 453b d63f 4a3b 3492 513b
00000090: 42ca 163b 77b2 5bba a8d9 073b 1642 253a
000000a0: cf6c 2a3a 584c f13a 40be 193c ad9a 933b
000000b0: 9b8a 88bb 0d05 853b ad5c e9b9 b3ca 413b
000000c0: 5b5c 6dba 0e4a 69b9 366f 12bb 486a cabb
000000d0: d608 16bb a622 fdba 068b 3039 fc28 8dba
000000e0: 88fe f13a b05b 9cb9 84ab 8f37 9299 9a39
000000f0: 8316 05bb 80eb 09bb e1ad 41bb e128 c338
00000100: 1439 90ba 92e0 58bb 76bb 38bb d9a5 63bb
00000110: 2183 993a 77c6 9fba f7f8 c7ba 09b2 0335
00000120: 5193 a7bb 9911 b439 c525 bbbb fd4d 7ebb
00000130: af3c 8bbb e31d 31bc 6eee 46ba a5b6 3bba
00000140: 6f8b 44b8 7f5f 4bbb 3283 523a 0573 463b
00000150: 93d9 653a 347f 0dba cf06 743a 070d d8bb
00000160: a1c3 38bb 9b2d 48bb 4c8d 9bbb e9ea 08bb
00000170: 76a4 e5b9 19d9 84bb 38e0 44bb 44c8 1ab9
00000180: 3697 8dbb 72c7 713a c9be 5dbb dc22 8cbb
00000190: 3769 a0ba 9b47 89bb af1a c2ba dbf5 8cbb
000001a0: f239 31bb dc1b 86b9 d781 0839 d571 28bb
000001b0: ee45 58bb 88c3 81bb b6b7 93b9 4839 3dbb
000001c0: ba6c e6b6 cdd0 333b 6258 aebb c4b0 07bb
000001d0: 536b 02bb da7b 14bb ecd0 c2bb 3041 16b9
000001e0: f6a5 d13a 9749 d1ba 38b3 c03a 90a1 3c3b
000001f0: b06b 953b e630 453b 5f57 f739 cb02 9fbb
00000200: dd3e d6b9 9d49 1139 f41a c4bb a112 95bb
00000210: 2305 373a 5118 993b c570 993b e90b a73b
00000220: 05fa ee3b 3aed ad3b 8d09 6c3b d163 c03b
00000230: f548 123c 7b9f b5b9 3b9c 343b 1865 d83b
00000240: 3c87 cb3b 3e70 243b 045a e73b 3d41 07ba
00000250: ef6e af3b 90f8 d33b ecb7 bf3b 2c72 0a3a
00000260: 4b63 903b 8e4a 2b36 357c 103c 93ba dd3a
00000270: 5280 a4bb 174a b6bb 9dc3 40bb b1c5 70bc
00000280: ecc0 6fba fa73 0a3a 10d8 cb39 c130 0bbb
00000290: 4ef1 e43a aa5d 7ebb d746 f7ba 71df ae3b
000002a0: 1e0e a9ba 8dba 573a 4a9e 0a3b 1664 9dbb
000002b0: d0c2 12bb 9646 0f3b ba8c 3ebb 3e92 8e3b
000002c0: 3aec 903b 10f0 9e3b 4bd0 bc3b 55ca 1c38
000002d0: aefa ac3b 87e8 bb3b 762b 04b9 df7d cc3b
000002e0: 4910 4f3b 6264 0b3c cfeb a13b a5a7 b03b
000002f0: 8fe9 8db7 31aa 9f3b ac00 ce3b cbed 513b
00000300: 3853 b139 a909 963b 9356 1e38 7738 cf3a
00000310: 62c5 ff3a 302d 6f3b 3960 103b d03c d13a
00000320: 404d 253b 3f05 51b9 522c 6939 7091 1839
00000330: d5a5 09bb ae2d 243a a23d 503b 4cf3 1cbb
00000340: dbc3 9cbb e980 91b8 6fbd 943b 6606 1a3c
00000350: 4f8a 4b3b 77ba 803b e5a8 9939 06c2 2338
00000360: d978 02bc 2b0b d9bb 9835 bfbb 7e82 febb
00000370: f9e2 20bb 690f 06bb 106f 55ba db52 913a
00000380: 69e8 9b3b fb9b c1bb f84a cbbb b89d efbb
00000390: 5ab1 babb 9f1d 283a b7a7 aebb 88ac 59bb
000003a0: 74a6 dabb e098 44ba 3580 e2bb 32a3 1837
000003b0: 380a 383c 6ddd f1ba 420d b8b9 415c 4db8
000003c0: 4918 623a f25a db3b 0d9a d939 eb8c 1abb
000003d0: 03b5 a739 84ea f8b7 54d3 343b 2f44 9bba
000003e0: 1bba 793a 8446 54bb 8d87 c039 cad0 1c3b
000003f0: cc34 2d3c d1a1 70b9 71bd 99bb 9135 35ba
5.654809e-05 -0.003420591 -0.004616256 0.00046085194 -0.008072388 0.0017827674 0.0017800675 0.00810059
0.0023639128 -0.00013461421 0.0054662647 0.007968376 0.0092358785 0.0077462154 0.00892222 -4.682195e-05
0.0055286456 0.0067952555 -0.0002699138 -0.0013591346 0.007316203 0.006825238 0.008104424 0.00824393
-0.0002486368 0.009084139 0.0070035807 0.002892981 -0.0008323043 0.008548534 1.0690026e-06 -0.0008528248
0.0024948209 0.0030140318 0.0030860803 0.0031978013 0.0023008739 -0.00083807803 0.0020729098 0.0006304098
0.0006501199 0.0018409593 0.009383738 0.004504523 -0.0041669137 0.00405944 -0.00044510272 0.002957028
-0.00090545946 -0.00022248199 -0.002234412 -0.0061772205 -0.002289345 -0.0019312694 0.00016836458 -0.0010769661
0.0018462697 -0.0002982295 1.7126797e-05 0.00029487588 -0.0020307607 -0.002104491 -0.0029553103 9.305939e-05
-0.0011003339 -0.0033092839 -0.0028187907 -0.0034736304 0.0011712053 -0.0012189884 -0.0015256692 4.906038e-07
-0.005113997 0.00034345387 -0.0057112896 -0.003880381 -0.0042491774 -0.010810348 -0.00075886294 -0.00071607
-4.68599e-05 -0.0031032262 0.0008030414 0.003028096 0.0008768078 -0.0005397678 0.0009308876 -0.00659335
-0.0028192776 -0.003054476 -0.0047470685 -0.002089197 -0.00043800817 -0.0040542004 -0.0030040871 -0.00014761189
-0.0043210043 0.000922314 -0.003383564 -0.0042766165 -0.0012238388 -0.0041894442 -0.0014808978 -0.004301769
-0.0027042595 -0.00025579229 0.0001301834 -0.0025702615 -0.0033000666 -0.0039600767 -0.000281749 -0.0028873254
-6.8671916e-06 0.0027437687 -0.0053205946 -0.0020704726 -0.0019900396 -0.002265683 -0.0059453156 -0.00014329399
0.0015994895 -0.0015967366 0.0014701849 0.0028782822 0.0045599565 0.003008896 0.00047176608 -0.004852628
-0.00040864098 0.000138557 -0.0059846584 -0.00454934 0.00069816614 0.004672088 0.0046826326 0.0050978553
0.0072929882 0.0053078206 0.0036016435 0.005871274 0.008928527 -0.00034641832 0.002755894 0.006603848
0.0062111896 0.0025091316 0.0070602912 -0.00051595626 0.0053538005 0.00646884 0.0058507826 0.0005281295
0.004406368 2.5524382e-06 0.008818676 0.0016916565 -0.00502018 -0.0055630314 -0.002941347 -0.014695571
-0.0009145874 0.0005281564 0.00038880156 -0.0021238776 0.0017466934 -0.0038813152 -0.0018865716 0.005336695
-0.0012897884 0.00082293974 0.0021151477 -0.004803191 -0.002239395 0.002186214 -0.0029075579 0.0043509295
0.0044226917 0.004850395 0.005762135 3.7381735e-05 0.005278907 0.0057345065 -0.00012604691 0.006240591
0.00315954 0.00850782 0.0049414407 0.0053910785 -1.6917269e-05 0.0048725833 0.006286701 0.0032032605
0.00033822074 0.0045787883 3.7750764e-05 0.0015809675 0.0019513781 0.003649544 0.002203001 0.0015963558
0.0025223047 -0.00019933748 0.00022237122 0.0001455003 -0.0021003385 0.00062629103 0.0031775017 -0.0023948727
-0.00478409 -6.93815e-05 0.004539184 0.00940094 0.003105778 0.0039284783 0.0002930827 3.9042927e-05
-0.007963383 -0.006623646 -0.0058352463 -0.0077670207 -0.0024549349 -0.0020455963 -0.0008141855 0.0011087315
0.00475793 -0.005908487 -0.0062040053 -0.0073125027 -0.0056974115 0.00064131053 -0.0053300518 -0.003321441
-0.006672675 -0.0007499587 -0.006912256 9.097903e-06 0.011232905 -0.0018452831 -0.00035105093 -4.8961727e-05
0.00086248346 0.006694191 0.00041504242 -0.0023582529 0.00031987586 -2.9673109e-05 0.0027591782 -0.0011845882
0.0009526328 -0.0032390663 0.00036722087 0.002392816 0.01057167 -0.00022948465 -0.0046917726 -0.0006912584
